…
    x = Conv1D(n_channels, conv_sz, activation='relu')(x)
    x = Dropout(drate)(x)
    x = Flatten()(x)
    x = Dense(n_channels)(x)
    D_out = Dense(2, activation='sigmoid')(x)
    D = Model(D_in, D_out)
    dopt = Adam(lr=lr)
    D.compile(loss='binary_crossentropy', optimizer=dopt)
    return D, D_out

D_in = Input(shape=[50])
D, D_out = get_discriminative(D_in)
D.summary()
```

    _________________________________________________________________
    Layer (type)                 Output Shape              Param #   
    =================================================================
    input_5 (InputLayer)         (None, 50)                0         
    _________________________________________________________________
    reshape_2 (Reshape)          (None, 50, 1)             0         
    _________________________________________________________________
    conv1d_2 (Conv1D)            (None, 46, 50)            300       
    _________________________________________________________________
    dropout_2 (Dropout)          (None, 46, 50)            0         
    _________________________________________________________________
    flatten_2 (Flatten)          (None, 2300)              0         
    _________________________________________________________________
    dense_7 (Dense)              (None, 50)                115050    
    _________________________________________________________________
    dense_8 (Dense)              (None, 2)                 102       
    =================================================================
    Total params: 115,452
    Trainable params: 115,452
    Non-trainable params: 0
    _________________________________________________________________
    

# 串接兩神經網路


```python
def set_trainability(model, trainable=False):
    model.trainable = trainable
    for layer in model.layers:
        layer.trainable = trainable
…
