…
        X, y = sample_noise(G, n_samples=n_samples, noise_dim=noise_dim)
        set_trainability(D, False)
        g_loss.append(GAN.train_on_batch(X, y))
        if verbose and (epoch + 1) % v_freq == 0:
            print("Epoch #{}: Generative Loss: {}, Discriminative Loss: {}".format(epoch + 1, g_loss[-1], d_loss[-1]))       
            
    return d_loss, g_loss, xx, yy
```

    _________________________________________________________________
    Layer (type)                 Output Shape              Param #   
    =================================================================
    input_25 (InputLayer)        (None, 10)                0         
    _________________________________________________________________
    dense_27 (Dense)             (None, 200)               2200      
    _________________________________________________________________
    activation_12 (Activation)   (None, 200)               0         
    _________________________________________________________________
    dense_28 (Dense)             (None, 30)                6030      
    =================================================================
    Total params: 8,230
    Trainable params: 8,230
    Non-trainable params: 0
    _________________________________________________________________
    _________________________________________________________________
    Layer (type)                 Output Shape              Param #   
    =================================================================
    input_26 (InputLayer)        (None, 30)                0         
    _________________________________________________________________
    reshape_12 (Reshape)         (None, 30, 1)             0         
    _________________________________________________________________
    conv1d_12 (Conv1D)           (None, 26, 30)            180       
    _________________________________________________________________
    dropout_12 (Dropout)         (None, 26, 30)            0         
    _________________________________________________________________
    flatten_12 (Flatten)         (None, 780)               0         
    _________________________________________________________________
    dense_29 (Dense)             (None, 30)                23430     
    _________________________________________________________________
    dense_30 (Dense)             (None, 2)                 62        
    =================================================================
    Total params: 23,672
    Trainable params: 23,672
    Non-trainable params: 0
    _________________________________________________________________
    _________________________________________________________________
    Layer (type)                 Output Shape              Param #   
    =================================================================
    input_27 (InputLayer)        (None, 10)                0         
    _________________________________________________________________
    model_16 (Model)             (None, 30)                8230      
    _________________________________________________________________
    model_17 (Model)             (None, 2)                 23672     
    =================================================================
    Total params: 31,902
    Trainable params: 8,230
    Non-trainable params: 23,672
    _________________________________________________________________
    Epoch 1/1
    424/424 [==============================] - ETA: 5s - loss: 0.005 - 1s 1ms/step - loss: -1.6706
    

### 3.2 OCGAN setting


```python
# import modules
…
