…
    WARNING:tensorflow:From C:\Users\User\Anaconda3\envs\Tensorflow-gpu\lib\site-packages\keras\backend\tensorflow_backend.py:3445: calling dropout (from tensorflow.python.ops.nn_ops) with keep_prob is deprecated and will be removed in a future version.
    Instructions for updating:
    Please use `rate` instead of `keep_prob`. Rate should be set to `rate = 1 - keep_prob`.
    _________________________________________________________________
    Layer (type)                 Output Shape              Param #   
    =================================================================
    input_2 (InputLayer)         (None, 66)                0         
    _________________________________________________________________
    reshape_1 (Reshape)          (None, 66, 1)             0         
    _________________________________________________________________
    conv1d_1 (Conv1D)            (None, 62, 66)            396       
    _________________________________________________________________
    dropout_1 (Dropout)          (None, 62, 66)            0         
    _________________________________________________________________
    flatten_1 (Flatten)          (None, 4092)              0         
    _________________________________________________________________
    dense_3 (Dense)              (None, 66)                270138    
    _________________________________________________________________
    dense_4 (Dense)              (None, 2)                 134       
    =================================================================
    Total params: 270,668
    Trainable params: 270,668
    Non-trainable params: 0
    _________________________________________________________________
    _________________________________________________________________
    Layer (type)                 Output Shape              Param #   
    =================================================================
    input_3 (InputLayer)         (None, 10)                0         
    _________________________________________________________________
    model_1 (Model)              (None, 66)                15466     
    _________________________________________________________________
    model_2 (Model)              (None, 2)                 270668    
    =================================================================
    Total params: 286,134
    Trainable params: 15,466
    Non-trainable params: 270,668
    _________________________________________________________________
    WARNING:tensorflow:From C:\Users\User\Anaconda3\envs\Tensorflow-gpu\lib\site-packages\keras\backend\tensorflow_backend.py:2741: The name tf.Session is deprecated. Please use tf.compat.v1.Session instead.
…
    WARNING:tensorflow:From C:\Users\User\Anaconda3\envs\Tensorflow-gpu\lib\site-packages\tensorflow\python\ops\nn_impl.py:180: add_dispatch_support.<locals>.wrapper (from tensorflow.python.ops.array_ops) is deprecated and will be removed in a future version.
    Instructions for updating:
    Use tf.where in 2.0, which has the same broadcast rule as np.where
    _________________________________________________________________
    Layer (type)                 Output Shape              Param #   
    =================================================================
    input_4 (InputLayer)         (None, 10)                0         
    _________________________________________________________________
    dense_5 (Dense)              (None, 200)               2200      
    _________________________________________________________________
    activation_2 (Activation)    (None, 200)               0         
    _________________________________________________________________
    dense_6 (Dense)              (None, 66)                13266     
    =================================================================
    Total params: 15,466
    Trainable params: 15,466
    Non-trainable params: 0
    _________________________________________________________________
    _________________________________________________________________
    Layer (type)                 Output Shape              Param #   
    =================================================================
    input_5 (InputLayer)         (None, 66)                0         
    _________________________________________________________________
    reshape_2 (Reshape)          (None, 66, 1)             0         
    _________________________________________________________________
    conv1d_2 (Conv1D)            (None, 62, 66)            396       
    _________________________________________________________________
    dropout_2 (Dropout)          (None, 62, 66)            0         
    _________________________________________________________________
    flatten_2 (Flatten)          (None, 4092)              0         
    _________________________________________________________________
    dense_7 (Dense)              (None, 66)                270138    
    _________________________________________________________________
    dense_8 (Dense)              (None, 2)                 134       
    =================================================================
    Total params: 270,668
    Trainable params: 270,668
    Non-trainable params: 0
    _________________________________________________________________
    _________________________________________________________________
    Layer (type)                 Output Shape              Param #   
    =================================================================
    input_6 (InputLayer)         (None, 10)                0         
    _________________________________________________________________
    model_4 (Model)              (None, 66)                15466     
    _________________________________________________________________
    model_5 (Model)              (None, 2)                 270668    
    =================================================================
    Total params: 286,134
    Trainable params: 15,466
    Non-trainable params: 270,668
    _________________________________________________________________
    Epoch 1/1
    92/92 [==============================] - ETA: 1s - loss: 0.667 - 1s 6ms/step - loss: 0.5688
    

### 3.3 SMOTE setting
因正負樣本相差過小，且smote function為自動平衡方法，也就是說它會自動抓取正負樣本差距給予平衡，但因差距僅三樣，因此我將資料0的部分重複貼上依次，使其差距擴大至49+3 = 52，下一步驟的adaysn也採用相同的更動資料。
…
